# parameters
nc: 3  # number of classes
depth_multiple: 1.00  # model depth multiple
width_multiple: 1.00  # layer channel multiple

# anchors
anchors:
  - [10,13, 16,30, 33,23]  # P3/8
  - [30,61, 62,45, 59,119]  # P4/16
  - [116,90, 156,198, 373,326]  # P5/32

# YOLOv5 backbone
backbone:
  # [from, number, module, args]
  # Two Stream
  [
   [-1, 1, Conv, [64, 6, 2, 2]],  # 0-P1/2
   [-1, 1, Conv, [128, 3, 2]],  # 1-P2/4
   [-1, 3, C3, [128]],
   [-4, 1, Conv, [64, 6, 2, 2]],  # 3-P1/2
   [-1, 1, Conv, [128, 3, 2]],  # 4-P2/4
   [-1, 3, C3, [128]],

   [[2,5], 1, Add_SE, [1]],    # 6 two stream fuse

   [-1, 1, Conv, [256, 3, 2]],  # 7-P3/8
   [-1, 6, C3, [256]],
   [-1, 1, Conv, [512, 3, 2]],  # 9-P4/16
   [-1, 6, C3, [512]],
   [-1, 1, Conv, [1024, 3, 2]],  # 11-P5/32
   [-1, 3, C3, [1024, False]],  # 12
   [-1, 1, SPPF, [1024, 5]],


   [6, 1, Conv, [256, 3, 2]],  # 14-P3/8
   [-1, 9, C3, [256]],
   [-1, 1, Conv, [512, 3, 2]],  # 16-P4/16
   [-1, 9, C3, [512]],
   [-1, 1, Conv, [1024, 3, 2]],  # 18-P5/32
   [-1, 3, C3, [1024, False]],  # 19
   [-1, 1, SPPF, [1024, 5]],

    ######### Add Block #############
   
   [[8,15], 1, Add_SE, [1]],    # 21 two stream fuse
   [[10,17], 1, Add_SE, [1]],    # 22 two stream fuse
   [[13,20], 1, Add_SE, [1]],    # 23 two stream fuse
  ]


# YOLOv5 head
head:
  [[-1, 1, Conv, [512, 1, 1]],          
   [-1, 1, nn.Upsample, [None, 2, 'nearest']],  # 25
   [[-1,22], 1, Concat, [1]],           # 26 cat backbone P4
   [-1, 3, C3, [512, False]],           

   [-1, 1, Conv, [256, 1, 1]],          
   [-1, 1, nn.Upsample, [None, 2, 'nearest']],  
   [[-1,21], 1, Concat, [1]],           # 30 cat backbone P3
   [-1, 3, C3, [256, False]],           # 31 (P3/8-small)

   [-1, 1, Conv, [256, 3, 2]],          
   [[-1,28], 1, Concat, [1]],           # 33 cat head P4
   [-1, 3, C3, [512, False]],           # 34 (P4/16-medium)

   [-1, 1, Conv, [512, 3, 2]],          
   [[-1,24], 1, Concat, [1]],           # 36 cat head P5
   [-1, 3, C3, [1024, False]],          # 37 (P5/32-large)

   [[31, 34, 37], 1, Detect, [nc, anchors]],    # Detect(P3, P4, P5)
  ]

layer_list:
  [0,1,2, 0,1,2, -1, 3,4,5,6,7,8,9, 3,4,5,6,7,8,9, -1,-1,-1, 10,-1,-1,13,14,-1,-1,17,18,-1,20,21,-1,23, -1] # backbone and neck